…
&lt;span class=&quot;n&quot;&gt;model&lt;/span&gt;&lt;span class=&quot;o&quot;&gt;.&lt;/span&gt;&lt;span class=&quot;n&quot;&gt;summary&lt;/span&gt;&lt;span class=&quot;p&quot;&gt;()&lt;/span&gt;
&lt;/pre&gt;&lt;/div&gt;

&lt;/div&gt;
&lt;/div&gt;
&lt;/div&gt;

&lt;div class=&quot;output_wrapper&quot;&gt;
&lt;div class=&quot;output&quot;&gt;


&lt;div class=&quot;output_area&quot;&gt;&lt;div class=&quot;prompt&quot;&gt;&lt;/div&gt;
&lt;div class=&quot;output_subarea output_stream output_stdout output_text&quot;&gt;
&lt;pre&gt;_________________________________________________________________
Layer (type)                 Output Shape              Param #   
=================================================================
dense_1 (Dense)              (None, 500)               15500     
_________________________________________________________________
activation_1 (Activation)    (None, 500)               0         
_________________________________________________________________
dropout_1 (Dropout)          (None, 500)               0         
_________________________________________________________________
dense_2 (Dense)              (None, 500)               250500    
_________________________________________________________________
activation_2 (Activation)    (None, 500)               0         
_________________________________________________________________
dense_3 (Dense)              (None, 2)                 1002      
_________________________________________________________________
activation_3 (Activation)    (None, 2)                 0         
=================================================================
Total params: 267,002
Trainable params: 267,002
Non-trainable params: 0
_________________________________________________________________
&lt;/pre&gt;
&lt;/div&gt;
&lt;/div&gt;

&lt;/div&gt;
&lt;/div&gt;

&lt;/div&gt;
&lt;div class=&quot;cell border-box-sizing text_cell rendered&quot;&gt;
&lt;div class=&quot;prompt input_prompt&quot;&gt;
…
